Data Collection/model.pth (torch, 15589 bytes, 19 tensors)

bn1.weight f4 [16]
00000000: 2e5a 5e3f 9180 4b3f f7e9 513f 350b 633f
00000010: 66ce 523f a2ec 413f 3bc4 553f 33a7 4c3f
00000020: 54b3 533f 633a 4b3f 2a35 433f b4c7 5e3f
00000030: aded 613f 9f38 503f f6bd 463f 3487 633f
0.86856353 0.7949305 0.8199763 0.88688976 0.8234619 0.757517 0.8350255 0.79942626
0.8269551 0.79385966 0.76252997 0.8702347 0.8825329 0.81336397 0.7763361 0.8887818

bn1.bias f4 [16]
00000000: 1e0e 2fbf 08c6 1abf 38a7 62bf 1b85 2fbf
00000010: b947 17bf 977f 25bf b770 f0be bb04 21bf
00000020: 26c9 0abf 2827 18bf 2770 08bf 17fa 39bf
00000030: 3f4f 26bf 5352 c1be 703d eabe 4321 23bf
-0.68380916 -0.6045842 -0.88536406 -0.6856248 -0.59093815 -0.6464781 -0.46960995 -0.62897843
-0.5421318 -0.5943475 -0.5329613 -0.7264723 -0.6496467 -0.3775812 -0.45749998 -0.6372263

bn1.running_mean f4 [16]
00000000: 8c55 c83d 3275 0bbe 572b aebd a833 a63e
00000010: bc04 403e 3d6b 60be 7124 813e d637 92be
00000020: ddac c8bd 5415 1d3e 5b72 9bbe d43f b9bc
00000030: 4c14 7cbe 175a 6cbe a18c f9bd 0e26 68be
0.09781942 -0.13618925 -0.0850436 0.32461286 0.18751806 -0.21915908 0.25223115 -0.28558224
-0.09798596 0.15340167 -0.30360684 -0.022613443 -0.24617118 -0.23081242 -0.12185026 -0.22670767

bn1.running_var f4 [16]
00000000: 62b6 983e ae36 eb3d 7e5f 2f3e 4813 ee3d
00000010: 4d56 c13d 51e8 4e3e c50b 1e3e 7924 5c3e
00000020: 6312 333e e1b6 bd3d 19e4 f53e 528d 1a3e
00000030: 205c d33d cc82 853e 7b03 633e 4157 253e
0.29826647 0.11485039 0.17126271 0.11624771 0.09440289 0.20205809 0.15434177 0.21498288
0.17487483 0.09263397 0.48025587 0.15092972 0.10320306 0.26076353 0.22169296 0.16146566

bn2.weight f4 [16]
00000000: d5e3 b93f d230 ca3f d9c5 b43f 6e95 ca3f
00000010: 3e44 bf3f 475e bd3f 469f d03f 8df6 d63f
00000020: 019f ba3f 64db b73f 1e2b be3f 6b0e ba3f
00000030: 7e73 c83f c89a b43f 6417 b43f 3b04 c83f
1.4522654 1.5796149 1.4122878 1.5826852 1.4942701 1.4794396 1.6298606 1.6793991
1.4579774 1.4363828 1.4856908 1.453565 1.5660245 1.4109735 1.4069638 1.5626291

bn2.bias f4 [16]
00000000: 3633 a83e ac1c dc3d 3202 843e 9ac4 143e
00000010: 8b78 9cbc e376 023e 3e8c 5d3e 850a c23c
00000020: 15cd 7e3d bec5 a73e 4572 983e 4103 43bd
00000030: 451d 4f3d 90be 633e d18b 50bc 7cee b238
0.3285157 0.10747656 0.25782925 0.14528123 -0.019100448 0.12740664 0.2163553 0.023686657
0.0622073 0.32768053 0.2977468 -0.047610525 0.050565023 0.22240663 -0.012728647 8.5321226e-05

bn2.running_mean f4 [16]
00000000: 8021 a9bd a669 42bc f74e 63be 4d92 e2be
00000010: 6b71 873d a5e2 6e3d 5c6d 0c3e 042d 55be
00000020: 82fd 07be cdc5 3b3d 9a83 8c3d 7190 813e
00000030: 142a d2be 90b5 1fbe 379c 543e 5f6f 713d
-0.08258343 -0.011866009 -0.22198091 -0.44252244 0.0661343 0.058321614 0.13713592 -0.20817953
-0.132803 0.045842934 0.068610385 0.25305513 -0.41047728 -0.15596604 0.20762716 0.058944102

bn2.running_var f4 [16]
00000000: e6ec 0e3d 9d23 1c3d 5b07 433d cc73 253d
00000010: be45 603d a2b5 223d 8534 453d 8806 393d
00000020: b2e4 203d f4b4 503d 01e5 d33c eb26 5e3d
00000030: e2d1 623d 417c 203d f01f 503d 227a 283d
0.034893893 0.0381199 0.047614437 0.040393636 0.05475401 0.039724 0.04814579 0.045172244
0.0392806 0.05095382 0.025866034 0.054236334 0.05537594 0.039180998 0.050811708 0.0411321

attention.attn.weight f4 [32, 32]
00000000: 9f03 723e e023 4ebe 83c7 223e 0eea 863e
00000010: c7a1 99bb a083 7d3e e358 0e3e 1c3f e23b
00000020: 93b3 7f3e bd8e 0b3d 29d5 933e 0f44 a13d
00000030: ed49 7a3e 10a6 6d3e f923 e33d bd77 d8bb
00000040: be14 b73d dd5f 7a3d 9559 a23d 4a87 633e
00000050: 1c55 803d 2db4 f03d 692a 693e 043d 19be
00000060: cb8d 173e 5cfe 993c ae3f 083b f84a a03d
00000070: 9715 353d a335 4ebd 9029 713e 6df1 073d
00000080: 20fa eb3d 8152 173e 5a0b 27be fc05 f63d
00000090: e74e 793e e71a 8b3c 2534 1c3e dbec 82bc
000000a0: 1e96 bebd a34d 83be 0188 ffbc 75ad 163e
000000b0: b0fa 09be a4b7 d03d a6a5 973e b325 97bd
000000c0: cf94 3f3e d9d3 98bc 9818 973b b4c1 203e
000000d0: cbb2 2e3f 260a cb3d f625 0a3f 1faf 0f3f
000000e0: 688f 983a 6da9 963d afbb 563e a403 9b3e
000000f0: 8678 02bd ebd9 e23d 796e a43e 880d 023f
00000100: 09bb a53d 9ff4 ce3d 78a5 a3be d5d2 953c
00000110: e869 35be e0ef 403e ff75 833e 9f58 e4bd
00000120: 2468 08be 3e3d d03d 7617 623e 358b 903e
00000130: bfa6 afbd aa0e 16be 7789 fcbc 262e 2abc
00000140: 38b9 3a3e 7e3b 693e 6e5b 833d 9e76 d5bc
00000150: 5b2d 17be dc3c a1bb 2da6 113d 09e9 d43d
00000160: 5202 d3bc 3776 5e3e 0172 2e3e c428 7e3d
00000170: 6ab0 12bd f3da 793e dc8b 65be c6a1 173e
00000180: 0444 84bd 43d7 fc3d 3cd8 8ebd 7238 003e
00000190: 112e 883e 26e8 623d 1376 5d3e 7cb2 a63e
000001a0: 4c9e e1bd ff1c a2bd ff56 84bd 6de1 ae3e
000001b0: 3765 ecbd 6a37 07be eafc a03e c03a c83e
000001c0: 8047 d53c 00f9 31bd 30a7 8c3d a68a 2dbd
000001d0: 3423 0ebe 5e8b 9d3d dee6 a5bd 60f8 14be
000001e0: 61f7 8c3d 5597 113e 5a4b 6c3d 23bd 45bd
000001f0: 0412 b4bc 893c f03d 37e2 e4bc a687 74be
00000200: 8f0d 4cbe df7a c3be 5c61 243e 193b 823b
00000210: f076 a0be 1e64 b53d 4a37 90be 9e7f a8bc
00000220: 6f86 58bd e046 35bd 04a4 96bd 975a d6bd
00000230: 3d98 d6bd 6e99 a23e 93bf 303e 73bf 7a3c
00000240: 74b8 49bd 4acf a6be 1203 883e d48b 1abe
00000250: 5ece bcbe 23dd 2d3e 1be5 1fbe d669 b5be
00000260: dbf8 95bc fbb0 2d3e eb43 e0bd 08bf 88be
00000270: 5489 3c3d fe0b 9b3e 084a 28bb f551 25be
00000280: 8cb6 4f3d a2f3 41be 15a3 2e3c 1d7b 2b3e
00000290: a13e 28be 8ce3 ae3d 192c c2bd 08d1 51be
000002a0: 3fab c23d c91d 0c3d 635b a8bd f7fd b83d
000002b0: 5c78 123e b1b6 2dbe 68d2 933d b8a2 203d
000002c0: 2fd7 53be 5fb3 383e 0e98 4bbd 2e16 c73d
000002d0: 96cf e8bd 0777 203e dfb1 dcbd 3d9d b63d
000002e0: f421 2a3e 7b00 05be c1d4 89bb 60e4 babd
000002f0: ec39 e63d d8ba aa3e dc3a 87bd bf3a 2a3e
00000300: 300b f4bc db62 083e 6420 3b3d 6020 e7bd
00000310: b003 8b3e e493 aebb b416 f23d 50e8 c93e
00000320: d90c 373e 7267 35be 278d a73d 0ad3 243b
00000330: 0db6 01be 6462 1e3e cb26 843d f185 c63e
00000340: 22f6 07be ebc8 05bd b3e4 9c3d fdc9 48bc
00000350: 1a5a 3ebe 99ae 4dbe 19ec 20be dda2 18be
00000360: c1af 50bd 0e55 e63d eb54 c0bc a7f5 e2bd
00000370: bafb 403d 676b 49bd 6c4a 8abd 11e3 62be
00000380: f008 613c 6b65 323e 9fdb 0ebe 537b 08be
00000390: 5933 453d 5ea7 523e e740 8a3c a16f 75be
000003a0: 5c70 d6be 78ad 133d 610a 823d 3367 773e
000003b0: ff80 12be be31 a3bd 3617 8fbe 518b f7bd
000003c0: cb03 cc3c a438 5abd 9f31 f5bd a6e9 5ebe
000003d0: d93b 263d 6cc5 84be 23cd 84bd f190 f6bd
000003e0: bdb3 8dbe aa21 b1be 82ee a2bc 4131 d43d
000003f0: 37f3 c7be 7423 51be 8844 cd3d cd4e 82bb
0.23634194 -0.20130873 0.1589642 0.26350445 -0.004688475 0.24757242 0.13901095 0.006904496
0.24970846 0.034071673 0.28873566 0.07874309 0.24442263 0.23207879 0.110908456 -0.006606071
0.08939503 0.06112658 0.07927243 0.22219577 0.06266233 0.11753116 0.22770084 -0.14964682
0.14800183 0.018798046 0.002078991 0.07826799 0.044210043 -0.05034412 0.23551011 0.033189226
0.11522317 0.14777566 -0.16312924 0.1201286 0.24346505 0.016980601 0.15254267 -0.015982082
-0.09305976 -0.2564517 -0.031192781 0.14714606 -0.13474536 0.10191277 0.29618567 -0.073802374
0.1870911 -0.018655704 0.004611086 0.15698892 0.68241566 0.09914045 0.53964174 0.5612659
0.0011639418 0.07356534 0.20970033 0.30276215 -0.03185322 0.11076721 0.32115534 0.508019
0.08092315 0.101052515 -0.3196218 0.01828901 -0.17716181 0.18841505 0.2567596 -0.11149716
-0.13320976 0.10167931 0.22079262 0.28231207 -0.08576726 -0.14654031 -0.030827267 -0.010386979
0.18234718 0.227766 0.06413923 -0.026057538 -0.14763395 -0.004920585 0.03555887 0.103960104
-0.025757942 0.21724783 0.17035677 0.062050596 -0.035812773 0.24399929 -0.22416633 0.14807805
-0.064582855 0.123457454 -0.06974837 0.12521532 0.26597646 0.055397175 0.21627073 0.32558048
-0.11016521 -0.07915687 -0.06461906 0.3415636 -0.11542743 -0.13204733 0.31442958 0.39107323
0.02603507 -0.043450356 0.06867826 -0.042368554 -0.13880616 0.07692598 -0.08100675 -0.14547873
0.06883121 0.14217885 0.05768905 -0.048276078 -0.021981247 0.11730296 -0.027939899 -0.23879871
-0.19927047 -0.3817968 0.16052765 0.00397433 -0.31340742 0.088569865 -0.28167182 -0.020568665
-0.05286258 -0.044257045 -0.07355502 -0.104664974 -0.10478256 0.31757683 0.1726058 0.015304434
-0.049248174 -0.32580024 0.26564842 -0.15092403 -0.36876196 0.16978888 -0.1561474 -0.3543231
-0.01830714 0.16962044 -0.10950454 -0.26708245 0.046029404 0.30282587 -0.0025678892 -0.16144545
0.0507112 -0.18940595 0.010658999 0.16746183 -0.16430141 0.08539495 -0.09481067 -0.20489895
0.09505319 0.034208093 -0.08220556 0.09032815 0.14303726 -0.16964222 0.07217866 0.03921768
-0.20687555 0.18037175 -0.049705558 0.09721027 -0.11367719 0.15670405 -0.10776114 0.089167096
0.16614515 -0.12988465 -0.0042062704 -0.0912559 0.112415165 0.33345675 -0.066030234 0.16623972
-0.02979049 0.1331896 0.045685187 -0.11285472 0.2715125 -0.0053276885 0.118207365 0.39435053
0.17875995 -0.17715243 0.081812195 0.0025150203 -0.12667103 0.1546722 0.06452712 0.38774064
-0.13277486 -0.032662313 0.076608084 -0.012255189 -0.18589059 -0.20086135 -0.15715064 -0.14905877
-0.050948862 0.11246692 -0.023477992 -0.11082011 0.047115065 -0.049174692 -0.06752476 -0.22156931
0.013735041 0.174215 -0.13950966 -0.13328294 0.048144672 0.20571658 0.016876651 -0.23968364
-0.41882598 0.036054105 0.06349636 0.24160461 -0.1430702 -0.07968472 -0.27947396 -0.12087119
0.024904152 -0.053276673 -0.11972355 -0.21768817 0.04058442 -0.2593187 -0.06484439 -0.12039364
-0.27676192 -0.34595996 -0.01988912 0.10360957 -0.39052746 -0.2042368 0.10022837 -0.003976679

attention.attn.bias f4 [32]
00000000: 99fe 13be 3ad4 8b3d 7e42 233e 1b79 8ebc
00000010: 50b0 e63c 1d6a a03a 3c68 443d 53ed 99bd
00000020: d989 5c3e f817 d7bc fea9 f1bd 4dc2 9fbe
00000030: beb0 9abe 72c2 39be 6075 dabd 5de8 8b3d
00000040: d823 6a3e bce8 9a3e a9d6 813e f5d7 6fbe
00000050: df66 1a3e e2aa c83d 4f30 033e 8cd0 c53d
00000060: d296 2c3e c08e 75be 9bcf 9fbd 2556 dfbe
00000070: 0423 143e 4e69 a1bd 0214 00be 8582 5b3e
-0.1445259 0.068275884 0.15943334 -0.017391732 0.028160244 0.0012238655 0.04795097 -0.07515969
0.2153696 -0.026256546 -0.118000016 -0.31202927 -0.3021297 -0.18140581 -0.10666919 0.06831429
0.22865236 0.30255687 0.25359085 -0.23422225 0.15078305 0.09798218 0.12811397 0.09658918
0.16854408 -0.23980236 -0.078032695 -0.4362041 0.14466482 -0.078814134 -0.12507632 0.21436508

attention.v.weight f4 [1, 32]
00000000: 17b4 663e b88e 47be e94c 48be 6cfb 273e
00000010: 7d1b 633e f2da f83d d37e 403e 81a2 963e
00000020: 3409 54be 3613 323d b773 8d3e 80f8 3f3e
00000030: b409 213e baf3 733e f751 2ebe b995 77be
00000040: 8b50 a3be 6448 ca3d e5d8 0dbe a9b7 c1bd
00000050: 2749 b73d a849 d6bd e7de bebd 88bf f03d
00000060: bc67 3abe c4e2 edbd ee26 213e 8536 8b3d
00000070: b91d a8bd 6e54 0abe e312 813d 730e 0e3e
0.22529636 -0.19488037 -0.19560589 0.16404504 0.22178455 0.121511355 0.1879838 0.29420856
-0.20706636 0.043475352 0.27627346 0.18747139 0.15726358 0.23823443 -0.17023455 -0.24178208
-0.31897387 0.09877089 -0.1385227 -0.094588585 0.089494996 -0.104632676 -0.09319859 0.11755282
-0.18203634 -0.11615518 0.15737507 0.06797508 -0.08208794 -0.1350877 0.063024305 0.138727

depthwise1.weight f4 [8, 1, 64]
00000000: 1c65 513e 5e24 003e 7cb8 373e 669e da3b
00000010: 4797 afbc 715f 253d 5ef6 7e3d bf78 4a3d
00000020: 00cb d53c 596f 833d c4cb 5bbd bdeb a23d
00000030: 24eb a03d e1e3 953b e19e cf3c 8335 a63d
00000040: 8b8b 933d cb02 16bc ade2 3c3e b205 313c
00000050: 598e 8f3d 06e8 d43c fc96 013e 79b1 443e
00000060: a0d6 83bd 37ce 09be 2833 a63e d0c8 ed3d
00000070: a168 5bbe 9417 01be b37a b63e a1d6 203e
00000080: b284 3dbe 94d1 9ebd 6d73 743d a271 2f3e
00000090: cace 79bd 4a46 d8bd 4056 163e ab7d 233e
000000a0: cc88 d8bb 6d7b 85bd 44d4 5e3d 2017 f23d
000000b0: bd5d 6b3d c236 5d3b 03ba 423e 1df0 483c
000000c0: b4e1 2abd 5c57 2ebd 992a 103e 316a 9f3d
000000d0: 30af 42be 1719 2d3d d495 3e3e d013 13bc
000000e0: ea8d f0bd 149b 8c3c 4158 d63d c3f0 3f3e
000000f0: d15e dbbd edd0 01be fc49 1f3d 6b79 653e
00000100: ea43 f43d c9c0 0bbe cca8 ac3d f558 093e
00000110: 514a 17be 072d c8bd a6a5 3c3e 732a f23d
00000120: 209f 41be 4299 8abd c16a 7a3e 9542 4e3d
00000130: 5200 81bc 7d42 3f3b cee6 1b3e 8d5f 483e
00000140: ebea c2bd dae4 013e b03f 633c 8c90 0c3d
00000150: 946f c23d 91a1 2a3d ae11 cd3d 998a 703c
00000160: 23df 49bd be5a 283d 2e93 1a3e 68e2 4c3d
00000170: 2b20 7abd 4adb e7bc c450 023e 587b ec3c
00000180: bb26 fe3c 7c69 9e3d 2b69 e43d 6e36 83bd
00000190: 42e0 a13d d61e a23d e99e f53c 7ef8 063e
000001a0: 205b 0a3e b188 8fbc 61f6 ea3c 11d9 d2bc
000001b0: b73a f53d ab0c c73d 23ae c23c 1f9d 17bb
000001c0: 0990 133e c280 ae3d 635f 09bd 5147 91bc
000001d0: cb34 f13d 4d81 0fbe 620a 9d3d 928f 173e
000001e0: c14e a4bb 1493 19be a153 c43c c0d4 153e
000001f0: 046b cabd 8989 57be b693 323e b0e4 683e
00000200: 74f6 60be b29a 1a3d 3c8f 463d c7c2 a7bc
00000210: b0ee 68bd cc8f 093d 1dca 343d 2e24 6abd
00000220: 9f47 8bbd 6c45 b13c 8e7b f0bc de5e ecbd
00000230: f374 38bd 74d1 d3bc dd63 89bc 4984 f7bc
00000240: 8f95 d1bc 56ea 0c3e ef23 733d e899 1dbe
00000250: 0de7 cb3d eda4 5b3e 4b5a 75bd bdc2 01be
00000260: 06d3 10be 0b2e 7fbb 28fe 9a3c 6e72 7c3d
00000270: e675 fb3c d73d 803b 173c b93c d6dd 8dbd
00000280: ccdf 3d3e cf71 98bc 5392 c2bd 63a5 ae3d
00000290: 8ea5 a53c 1a51 bd3c 0847 91bd b49f a63c
000002a0: 5c3e d9b9 435f a13d acd9 903d d82a 0fbe
000002b0: e446 803d fb31 283d 5ce0 f03d f3dc 4d3e
000002c0: 7319 35bd b213 5cbe da60 6a3b 9a1b 843e
000002d0: 1334 833d d675 2ebd b8f2 6bbd 34ff a03e
000002e0: c978 ee3d 166b 18be 3369 bdbc 029a 013e
000002f0: fc49 853c cd10 6abe d3ba 8dbd 1a65 213e
00000300: 2bfb af3e d330 24be 9424 cebd ec79 a13d
00000310: 37a3 673e 0c77 d4bd f34a 5f3d 90bb 10bd
00000320: 1808 703d 3763 693c 9c94 eb3b 8f84 db3c
00000330: 7d27 8d3c 2bef 15bb 4e28 2b3d 31d4 c3bc
00000340: d26c 233e a1ad 4d3d 5753 813d 7357 033e
00000350: 0571 e23d 88f4 3a3d 0771 c1bd 2888 3f3e
00000360: f32e 343e e1dd 483c 105a 0bbd c0a1 443e
00000370: 817b fe3d 6add c23d d505 cfbd b48e dd3d
00000380: 396b 0d3e 6655 4d3c 099b dd3d 7fd3 73bc
00000390: e84c 153d 6527 3b3e 059d 0ebb 5f91 9ebc
000003a0: 46c7 f5bd 1171 583e 8a59 293d d87e edbd
000003b0: eb1c 8b3d ae40 f73d e4dd 533d 431a bfbd
000003c0: 3afb 4e3d c1b7 ed3d 3103 3d3e edb0 2abc
000003d0: cc37 76bd e403 443e 88e6 6a3d f6d8 2dbe
000003e0: 7266 d13d 5b0b 4f3d 1896 653c 4733 943b
000003f0: 12b6 5e3d 5377 b0bc a4d6 393d c4fe f2bd
0.20448726 0.12513873 0.17941469 0.0066717146 -0.02143444 0.040374223 0.062246673 0.04943156
0.026097775 0.06417722 -0.053661123 0.0795512 0.078573495 0.0045742844 0.025344314 0.08115675
0.0720435 -0.009155939 0.18445845 0.0108045805 0.070095725 0.025989544 0.12655252 0.19208325
-0.06437421 -0.13457571 0.32460904 0.116105676 -0.21426632 -0.1260665 0.35640487 0.15706874
-0.1850765 -0.077548176 0.05968039 0.17133191 -0.060988225 -0.105602816 0.1468134 0.15965907
-0.0066081043 -0.06517682 0.05440165 0.11820817 0.057462443 0.0033754562 0.1901627 0.012264279
-0.041719154 -0.04256378 0.1407875 0.07783926 -0.19012141 0.042260256 0.18611842 -0.008976892
-0.11745818 0.01716379 0.10466052 0.18744187 -0.10711444 -0.12677355 0.038888916 0.22409599
0.11927016 -0.1364776 0.08430633 0.1341284 -0.14774443 -0.09774213 0.18422565 0.11824503
-0.18908358 -0.06767513 0.24454786 0.050356466 -0.015747223 0.0029183917 0.15224764 0.195677
-0.09517463 0.12684956 0.013870165 0.03431754 0.09493938 0.041657988 0.10013138 0.014681482
-0.049285065 0.041102163 0.15095207 0.050020605 -0.061065834 -0.028302807 0.12726122 0.028867409
0.031024328 0.07734963 0.11152872 -0.06406866 0.07904102 0.07916038 0.029983 0.1318073
0.13511324 -0.017521234 0.028681936 -0.025738271 0.119740896 0.09719213 0.023764675 -0.0023134423
0.14410414 0.08520652 -0.033538233 -0.017734202 0.117776476 -0.14014168 0.07667996 0.14800861
-0.005014271 -0.14997512 0.023965659 0.14631939 -0.09883693 -0.21048559 0.1743916 0.22743487
-0.21969014 0.037745185 0.048476443 -0.02047862 -0.056868255 0.0335844 0.044138063 -0.05716341
-0.0680077 0.021639548 -0.02935579 -0.11541532 -0.045033406 -0.025856711 -0.016771251 -0.030214446
-0.02558401 0.13761267 0.05936044 -0.15390742 0.09956179 0.21449633 -0.059900563 -0.12671943
-0.14142999 -0.0038937356 0.01892002 0.061632566 0.030695867 0.003913622 0.02261166 -0.069270775
0.18542403 -0.018608956 -0.095005654 0.08527639 0.020220544 0.023109961 -0.07093626 0.020339824
-0.00041435927 0.07879498 0.070727676 -0.13981187 0.06263521 0.04106329 0.11761543 0.20103817
-0.044213723 -0.21491888 0.0035763294 0.25802308 0.06406417 -0.042592846 -0.05760452 0.31444705
0.11644132 -0.148846 -0.023121452 0.12656406 0.01627063 -0.22857971 -0.069203995 0.15761223
0.34371313 -0.1603425 -0.100655705 0.07884583 0.22620855 -0.10374269 0.054514837 -0.035335124
0.05860147 0.014244846 0.0071893465 0.026796607 0.017230744 -0.002287815 0.041786484 -0.023904892
0.1595948 0.050214414 0.06314724 0.12826328 0.11056713 0.04564336 -0.094453864 0.18704283
0.17596035 0.012259931 -0.034021437 0.19202328 0.124259 0.09514888 -0.10108534 0.10818234
0.13810433 0.012532568 0.10820586 -0.014881968 0.036450297 0.18276747 -0.0021761071 -0.019356428
-0.12000899 0.21136881 0.041345157 -0.11596459 0.06792625 0.120728835 0.051725283 -0.09331181
0.050532557 0.11607314 0.18458249 -0.010418159 -0.060111806 0.19142109 0.057348758 -0.16977295
0.10224618 0.05054794 0.014012836 0.0045227143 0.054372855 -0.021541273 0.045370713 -0.11864999

pointwise1.weight f4 [16, 8, 1]
00000000: 0387 c43e e1e9 e93e 55fe e93d d726 72be
00000010: 021d 6b3e 71b9 95bd e790 7dbe d376 4bbe
00000020: db37 983e 0a43 b6be 6c67 c83d a9e5 413c
00000030: 9b13 f23d 15cc d2bc e46c b8be d219 40be
00000040: cba2 e1be 17a5 f1bd f520 dbba 5f58 d43c
00000050: 8837 67bd 20ab d93d edd0 e43e ef11 5c3e
00000060: 711f da3d 418b 1abe 93fc 81be e727 9cbe
00000070: 63ba 2abe 7953 c93e 9b50 243e 204c a4bd
00000080: a985 713d 8179 293e 5725 323e 28f5 1a3e
00000090: 7eb2 1e3e 3bb7 9dbe 3b9f a6be 518d 2c3c
000000a0: e7c9 993e 8590 a43e a880 7a3d b460 32be
000000b0: 0881 ae3d a75c 50bb 92c0 f43c df43 d4be
000000c0: fdd0 433d 9520 14bd 8bc4 3ebe 850c 0b3e
000000d0: b319 cd3e 07ab 083e c219 433e d0ae ab3d
000000e0: 4ae9 803e 1568 473e f3d5 983d bfd8 f5bc
000000f0: a747 07be abc4 553d 249e ce3d f9f6 edbe
00000100: 120d d4bd 84fb 5f3c fe22 8e3e 711b 84bd
00000110: 0bef edbe 53d8 ca3d cae9 a2be 4d28 afbd
00000120: 270e e73d 4de9 21be 3992 62be 25bb 83be
00000130: 2605 2cbe 2dfe a73e b469 1a3e 1346 b9bd
00000140: afde 4a3e 8daf 81bd 0149 373d 8924 9dbe
00000150: daf3 4fbe 292f d23e b869 eebd 5fa9 be3e
00000160: 0811 9bbe 31f3 ce3e bcfd 2abd f6c1 66be
00000170: 7ddc 5fbe 8e76 343e 8f0c 713e 5dd3 d73c
00000180: a7ca a73d 73cb 8bbe 2cc2 013e a056 353c
00000190: 22c2 093e 02c0 553e f0dd 38be c4ac d7be
000001a0: 76fe 29be fcdd 353e 4a0a 3c3e 0e1e 45be
000001b0: 1b52 0ebf 61b8 1a3d c23d 74be 480b 89bd
000001c0: e808 583d ff1a 643e 7679 c33d 0d2e f4be
000001d0: 2bb1 16bd 0d4a 4b3e 5c15 a0bd d785 50bd
000001e0: a3ec b23d 2038 5f3e b81c 593e 1a2e 463e
000001f0: a107 273e c3b8 d1be 06bb d9be 2f51 c93a
0.38384256 0.45686248 0.11425463 -0.23647629 0.22960284 -0.07310761 -0.24762307 -0.19869547
0.29730114 -0.35598022 0.09785351 0.01183454 0.11820146 -0.02573208 -0.36020577 -0.1875985
-0.44069514 -0.117990665 -0.0016718196 0.025921045 -0.056449443 0.10628343 0.44690648 0.21491216
0.10650528 -0.15092184 -0.2538801 -0.30499193 -0.16672663 0.39321497 0.16046374 -0.08022332
0.05896536 0.16550256 0.17397057 0.15132582 0.15497777 -0.30803856 -0.32543358 0.010531739
0.30036852 0.3214151 0.061157852 -0.17419702 0.085207045 -0.0031793506 0.02987698 -0.41458032
0.04780673 -0.036163885 -0.18629663 0.13578995 0.4005867 0.13346492 0.19052795 0.08382952
0.25177985 0.19473298 0.074626826 -0.03001058 -0.13210927 0.05218951 0.10088757 -0.46477488
-0.103540555 0.013670806 0.27761072 -0.064505465 -0.46471438 0.09904542 -0.31818992 -0.08552609
0.11281996 -0.15811653 -0.22126092 -0.25728717 -0.16798839 0.32811108 0.15079385 -0.09046569
0.1981151 -0.06332312 0.044747356 -0.30691937 -0.20307866 0.41051605 -0.11641258 0.37238595
-0.3028643 0.40419915 -0.041745886 -0.22534928 -0.21861453 0.1762335 0.23539947 0.026345903
0.0819295 -0.27303657 0.12671727 0.011068016 0.13452962 0.20874026 -0.18053412 -0.42123997
-0.16600975 0.17760462 0.183633 -0.19249746 -0.55594033 0.037773494 -0.23851684 -0.06691605
0.05274287 0.22275923 0.09544651 -0.47691384 -0.036790054 0.19852467 -0.07816574 -0.05090889
0.08736541 0.21798754 0.21202362 0.19353524 0.16311504 -0.40961275 -0.425255 0.0015359278

pointwise1.bias f4 [16]
00000000: 0443 cc3d 0c8d 0dbe 2d9b adbd 491c a63e
00000010: e7ea 423e be61 5ebe 0541 813e cba8 91be
00000020: 0a4d c9bd bfaf 1b3e d1cc 9bbe 0c16 a4bc
00000030: 1d5c 7dbe 2bf9 69be 3d80 f8bd 7fd9 66be
0.0997372 -0.13823336 -0.08476863 0.32443455 0.1903492 -0.21716973 0.25244918 -0.2844909
-0.09829147 0.1520376 -0.304297 -0.020030044 -0.2474217 -0.22848956 -0.121338345 -0.22543906

depthwise2.weight f4 [16, 1, 16]
00000000: 94a7 89bd 61c1 bb3c b2f9 89bd 24a7 c4bd
00000010: 2d4c bfbd d7b1 2bbe 9371 03be e050 e3bd
00000020: e77c 45be 9245 44be 7f95 32be 714a 0fbe
00000030: fa14 55be f0eb 6dbe aca1 50be 89ff 5dbe
00000040: ac11 673d 145e aa3d cfdc 133e c94d 0f3e
00000050: dec7 503e 239d 503e c0b6 1a3e 4181 293e
00000060: 47dc 2a3e 187e 133e 8b0a 373e daa9 f93d
00000070: e99a 7b3d a47b 053e 350b e43d fc4c 423e
00000080: 25f2 933e b1b1 663e 0e19 623e e411 833e
00000090: b037 653e dcd1 553e 52ca 1c3e dd55 2b3e
000000a0: f361 b43d 0f86 2a3e 14ba 4d3e 536b ec3d
000000b0: 548c 5a3e 968a 503e eed5 713e cc78 6e3e
000000c0: 645b ea3d f799 073e 73a2 3c3e cce0 3b3e
000000d0: c265 223e 686b 273e d0c9 db3d 2974 393e
000000e0: 189b 0f3e 5702 e53d c512 4d3e efd3 373e
000000f0: c01a 873e 7015 2d3e 7859 fe3d 5a29 083e
00000100: 282b 43be 749a f1bd d039 2bbe f334 35be
00000110: 5c39 e2bd 4a7e 13be c227 f2bd 78f5 b3bd
00000120: 5555 a1bd a911 f2bd 60d1 07be fe9d eebd
00000130: 4b58 82be 4b57 7abe 7f28 5ebe c678 54be
00000140: 45ae 2cbd 0085 83bc 0cf6 1dbc 1939 3e3d
00000150: a2fe dc3d 0949 b33d c11c 063e ecba ce3d
00000160: 3fc7 8cbd dbd5 00be 140a 26be dc08 60be
00000170: 5a8b 94be 0652 8cbe f0b5 7cbe d6ab 86be
00000180: 19b5 bb3d 9ba4 363e adf9 1a3e 678f 2e3e
00000190: 590c 2b3e c2fc 033e 3f87 123e 3407 ca3d
000001a0: 93de e03d e7da 893d a433 c53d eefb c13d
000001b0: 4ffd f23d 0d50 0c3e a6db ce3d 0dd6 6e3d
000001c0: 1243 063e b258 2c3e 14ae 1c3e 6e66 113e
000001d0: dae9 343e 2305 aa3d 7b35 35bd 8433 973d
000001e0: 3677 df3d 29a9 173e aa58 813e e7ad 2f3e
000001f0: 37f3 583e 4552 663e 6410 413e 512b 7f3e
00000200: 764a 92bd d151 18be fd54 03be cb8b 2fbe
00000210: d3e8 89be 48e4 3fbe d1e6 f8bd 8b8e f2bd
00000220: 5095 54be fcc6 22be 8f7b abbd 781e fdbd
00000230: 2188 22be 9ea7 0dbe afa5 2dbe 3069 36be
00000240: 3790 173e 85e9 2c3e 85cb 583e 8928 4d3e
00000250: 0937 1d3e f8da 693e 6dc8 253e 21e8 343e
00000260: fd07 e93d b695 103e aadf 5b3e 90ec 383e
00000270: afe7 943e 0c83 733e b0fc 1d3e 97b9 363e
00000280: dffb 443e 4663 ff3d 562b ba3d 5cce f33d
00000290: f6ee cd3d be69 e93d 5551 a53c 6d15 e33d
000002a0: c4b0 e73d 3f9f 133e 3446 8a3e 80fc 813e
000002b0: 02df 813e f6af 503e 983a 543e 2d6e 0f3e
000002c0: 0121 93be 9366 5ebe c1dc 69be 3e66 a3be
000002d0: 70f8 55be e5a9 5dbe d567 5dbe 0daa 3abe
000002e0: 33f9 01be fb87 f3bd ce38 eabd 61dd 0bbe
000002f0: a172 eebd 0757 e0bd dfc2 72bd c540 04be
00000300: 597c 9bbc 7750 cbbd 016a 58bd d8e9 b1bd
00000310: a907 83bd 38ff 79bd d8a2 403c 6695 81bc
00000320: 45ad f5bd 9da4 1bbe e0de 79be 7fd9 83be
00000330: d7a9 95be 103a 88be 5a2f 6bbe 45ee 84be
00000340: 4d2a 1b3e 752a 1d3e a7a9 2d3e 58c8 3f3e
00000350: a685 3b3e 732d 2b3e 6b06 123e da71 a93d
00000360: fbe7 f23d f8e5 a23d ae44 6f3d 7d18 163e
00000370: 8f34 e63d 70f7 2c3e b93a 0e3e f205 8b3d
00000380: 7b2c ed3a 356d 3dbd c869 29bd 7348 8dbd
00000390: f5bc f9bd 696d d2bd 06f8 cbbd e16e bbbd
000003a0: 8d98 cebd e795 6abe 0f5b 3ebe f99b 65be
000003b0: 9a67 65be 81bc 1fbe eda1 34be 1f14 e4bd
000003c0: a011 2ebe 77cc cfbd d3a4 2ebe fe10 3abe
000003d0: c31e 12be 08a0 3fbe ed33 debd 5fb4 06be
000003e0: 1344 dabd 2017 d0bd 2e4a 33be 1563 42bd
000003f0: 68f9 4cbe 3a79 55be 04de 6bbe 5552 75be
-0.06721416 0.022919359 -0.06737079 -0.09602192 -0.09340701 -0.1676706 -0.12836294 -0.1109941
-0.19285928 -0.19167164 -0.1743984 -0.13993241 -0.20808783 -0.23234534 -0.20374173 -0.2167951
0.056413338 0.08318725 0.144397 0.13994516 0.20388743 0.20372443 0.15108776 0.16553213
0.16685592 0.1440357 0.17875116 0.121906 0.06142703 0.13035446 0.1113495 0.1897468
0.2889568 0.22528721 0.2207987 0.25599587 0.22384524 0.20880836 0.15311554 0.16731973
0.08807745 0.16652702 0.20090514 0.11543908 0.21342593 0.20365366 0.23616764 0.23288268
0.11443213 0.13242327 0.18421344 0.18347472 0.1585913 0.16349566 0.10731852 0.18110718
0.14024007 0.11182087 0.20026691 0.1795194 0.26387596 0.16902709 0.124194086 0.13297024
-0.19059432 -0.11797038 -0.16721272 -0.1769598 -0.11046097 -0.14403644 -0.118239895 -0.08787054
-0.07877604 -0.11819775 -0.13263464 -0.11651228 -0.25457987 -0.24447362 -0.21695136 -0.20749196
-0.042158384 -0.01605463 -0.009641182 0.04644117 0.10790755 0.08754165 0.13096906 0.10094246
-0.06873941 -0.1258158 -0.16214782 -0.2187838 -0.29012567 -0.2740633 -0.24678779 -0.26302975
0.09165401 0.1783623 0.15134306 0.17046891 0.16703929 0.12889388 0.14309405 0.09864655
0.10979953 0.067312054 0.0962899 0.0947188 0.11864721 0.13702412 0.10100488 0.058309603
0.13111523 0.1683071 0.1530078 0.1419923 0.17667332 0.08301761 -0.044240456 0.07382873
0.109114096 0.14810623 0.25262958 0.17156182 0.21186529 0.22492321 0.18853909 0.24918868
-0.071431085 -0.1487496 -0.12825389 -0.1714317 -0.26935443 -0.18739426 -0.121534 -0.11843594
-0.20760083 -0.15896219 -0.08373176 -0.12359327 -0.15872242 -0.13833472 -0.16957735 -0.17813563
0.14801107 0.16885956 0.21171387 0.20034994 0.15353025 0.22837436 0.16189738 0.17666675
0.11378477 0.1411961 0.2147204 0.18058991 0.2908301 0.23780459 0.15428424 0.17844234
0.19236706 0.12470107 0.09090297 0.11904594 0.10055344 0.11397122 0.020180384 0.11088071
0.11313012 0.14416216 0.27006686 0.25387955 0.25365454 0.20379624 0.20725477 0.14006872
-0.28736117 -0.21718816 -0.22838117 -0.31913942 -0.20895553 -0.21646841 -0.2162164 -0.18228932
-0.12692718 -0.118911706 -0.11436616 -0.13658668 -0.116429575 -0.10954099 -0.059267875 -0.12915333
-0.018980192 -0.09927457 -0.05283547 -0.0868718 -0.063979454 -0.06103441 0.011757575 -0.015818309
-0.11995939 -0.15199514 -0.24401426 -0.25751874 -0.2923114 -0.26606798 -0.22967282 -0.25963035
0.15152855 0.15348227 0.16959248 0.18728769 0.18312702 0.16716556 0.14260261 0.082736686
0.11860653 0.07954019 0.058415107 0.14657779 0.112404935 0.16891265 0.13889588 0.06788243
0.0018094921 -0.046246726 -0.041360646 -0.06898584 -0.12194244 -0.102747746 -0.09959416 -0.09152008
-0.100876905 -0.22908746 -0.18589424 -0.2242278 -0.22402802 -0.15599252 -0.17639895 -0.1113665
-0.16998911 -0.101464204 -0.17055063 -0.18170545 -0.14269547 -0.18713391 -0.10849748 -0.13154744
-0.106575154 -0.10160661 -0.17508766 -0.047457773 -0.20017016 -0.20847026 -0.23033911 -0.23957188

pointwise2.weight f4 [16, 16, 1]
00000000: 829a 48be 8da5 e6bd 08ce c9bd fe25 ba3d
00000010: 6be6 a4be b4bc cc3d 30aa 8fbe d2e2 e83d
00000020: 006b 1d3e 6580 3b3e fefa 433e 4247 003e
00000030: 554b 9f3d 2366 57be cf21 463c b2c7 19be
00000040: c6ab 94be 4ec1 593d 95ff 883e b75d 2c3e
00000050: e26f 713e c173 56be 947e 903d 3705 e9bd
00000060: 790e 0c3e 212a cabd 35f1 93be 40f0 4bbd
00000070: e42f ae3d 5250 b73c bc2f 43be 81ee 053e
00000080: f57c 6d3e 4286 b4be d58f bfbc 4be7 ce3d
00000090: 206d 25be 4feb ebbc d9b6 acbc e37f b03d
000000a0: ddd5 21be 172c d6bd 6fcf 1c3e 70ab 1c3d
000000b0: 62a4 ba3e 8255 ba3c 2421 e13e 3a7b fe3c
000000c0: 8c61 613d 99d9 2b3c 2812 a8bd 9be6 6abe
000000d0: b5b9 683e b941 0abe dcca 883c 4dfe 1c3e
000000e0: ba07 e53d 8d34 6dbe 149a 30be f1d1 3cbe
000000f0: c34e 44be 69c6 dc3d c3f6 8f3b a5b4 633e
00000100: 1307 21be 6e45 b63d 946e b83e dd2d 26be
00000110: 9f95 a4bc 5ab4 c3be 0da9 37be 1bbb 1b3e
00000120: 3710 433e 72ca bebd eae3 60be 3891 3fbd
00000130: fd8f f93a 7de4 51be c4b4 2bbd e6ff 56bc
00000140: 797f d03d 152a 6d3d 9f3b 99be d5b0 86be
00000150: 49c9 ce3d 9a8d 0f3e 816d 2a3c cf77 863c
00000160: 6c5a 09be c3f4 85be 3cb9 d33c 9a68 9cbd
00000170: e482 46be 2eb9 ab3d c0e9 e13d a9ea ee3d
00000180: 7ff8 153d 1ccf e0bd 8da4 fc3d 4cd8 4f3d
00000190: fb6b c3be d69e 11be 7e1e b2be 14e2 063f
000001a0: 5fd3 053e 0063 6d3e 68ca e1bd 5108 063e
000001b0: 5fc2 fabd f3dd 3dbe eb81 59bd b0e7 05bc
000001c0: afd5 b7bd 34f0 a0bd 2cfe ef3e dc86 b9bd
000001d0: 4213 d5bc d63f 1fbe e4b3 5fbe 1668 183e
000001e0: 19ff 293e eda2 99bd 8c21 ddbd 95ae 123e
000001f0: bde0 2c3d c64d 69be b305 61bd 4951 dcbd
00000200: 3852 e83b a4e7 bebd 9a59 b0be 03ac 8fbe
00000210: 2ab6 933d 8c10 e63d 87b1 753d b210 a43d
00000220: 32ca 3abe 16a5 79be ef7d 3a3b 5130 4cbd
00000230: 64ea 1fbe a42b 4d3d a5c5 153e eb2d dd3d
00000240: 7304 043e a3e3 55be b887 08bd 43e4 0a3e
00000250: 259c c6bd 4932 563b 661d 69be dd0a d43d
00000260: 317a 14bc 8539 823e 1a5a f03d 9e5e 813e
00000270: 9a49 c03e 787d afbd f9a7 7e3e b0fe 17be
00000280: e216 51bd 2ab1 fabd d339 a63c e7bd 1a3e
00000290: 4988 dabd 065e 993d 27ea 89be 5ec3 9c3e
000002a0: 9447 9f3d 7f4c e03d 9f01 f53d fb73 0f3e
000002b0: b848 b53d f8e4 02be 00e2 ce3d 15a2 86be
000002c0: 38ca 503d 78c4 d83e a1df 3a3c 7a58 ed3b
000002d0: d31e 713e ddb7 7fbe 1640 023e e850 763e
000002e0: 975f 973d ac20 b33c 2ea8 73be 9cb6 a7be
000002f0: 3ace 16bd 8514 263e aff9 d4bd 3523 333e
00000300: bfaa 753d 279e e7bd bb80 96be 59a1 99be
00000310: 552e 0d3e 67a1 393e 624a 6c3d 8016 063d
00000320: 4e2f 0ebe 5fe2 91be ca93 ffbd f9c1 8fbd
00000330: a746 66be 30b7 97bc 0b4e f23d f611 243e
00000340: 3732 f13d 4448 8ebe 2961 553d a441 ad3d
00000350: 854b 2abd 3625 743c b568 b4bd 8a81 da3d
00000360: b07b e73b e6a0 2f3e a01e 243e af5c 7e3e
00000370: 139d ae3e d2f4 8f3c ed4d 713e e845 6dbe
00000380: 1c1d 04bd 1ed2 bb3e e44f 8a3d e880 54bd
00000390: c302 863e 2e35 a2be 5587 903d b065 b93d
000003a0: 72b4 8f3d a498 c4bd a2eb 31be 029b b2be
000003b0: fb1a a4bd f5e6 093e 01ef 0a3c 90aa 4d3e
000003c0: 124f aabe 5b6a 91be 5c39 c23e 6c59 44bd
000003d0: d80e 11bd 633b 82bd 5217 66be 09c6 01bd
000003e0: e750 483e d459 8fbd bffd 44be a18c 483c
000003f0: 3c95 81bd 7985 2dbe c322 7e3c 32f7 99bd
-0.1959019 -0.11262045 -0.098537505 0.09089278 -0.32207045 0.0999693 -0.2805953 0.113713875
0.15372849 0.18310697 0.19138715 0.12527183 0.0777804 -0.21035056 0.012093022 -0.15017584
-0.29037303 0.053162865 0.26757494 0.16832624 0.23577836 -0.20942594 0.07055393 -0.11377948
0.13677396 -0.09871317 -0.28894964 -0.049789667 0.08505228 0.022377167 -0.19061178 0.13079263
0.23192199 -0.3525868 -0.023384014 0.101027094 -0.16154909 -0.028798727 -0.021083282 0.086181425
-0.15804239 -0.10457628 0.15313505 0.038249433 0.3645354 0.022745851 0.43970597 0.031064618
0.05502467 0.010488891 -0.08206588 -0.22939532 0.22727092 -0.13501634 0.016698293 0.15331383
0.11183114 -0.23164578 -0.17246276 -0.18439461 -0.1917067 0.10780031 0.00439343 0.22236879
-0.15725355 0.088999614 0.36021864 -0.16228433 -0.020090876 -0.38223535 -0.17935582 0.15208094
0.19049154 -0.09315957 -0.21961942 -0.04676935 0.0019040104 -0.20497318 -0.04192044 -0.013122534
0.101805635 0.05790146 -0.299283 -0.26306787 0.10096986 0.1401886 0.010402084 0.016414551
-0.134134 -0.261633 0.025845163 -0.07637139 -0.19385868 0.083849296 0.110309124 0.116658516
0.036613937 -0.10977003 0.12336073 0.050743386 -0.3816832 -0.14220747 -0.3478889 0.5268872
0.13068913 0.23182297 -0.11024934 0.1308911 -0.122441046 -0.18541698 -0.053102415 -0.008172914
-0.08976304 -0.07858315 0.46873605 -0.090589255 -0.02601016 -0.15551695 -0.21845967 0.14883456
0.16601218 -0.07501779 -0.10797414 0.1432441 0.042206515 -0.22783574 -0.054937076 -0.107576914
0.0070898794 -0.09321526 -0.3444336 -0.28060922 0.072124794 0.11233625 0.059983756 0.08010997
-0.18241194 -0.24379382 0.002845641 -0.049850766 -0.15616757 0.050090447 0.14626177 0.10799774
0.12892322 -0.20887618 -0.033332556 0.13563637 -0.09697751 0.003268378 -0.22765121 0.103536345
-0.009062336 0.2543451 0.117359355 0.252675 0.37556154 -0.08568853 0.24868764 -0.1484325
-0.051047213 -0.122408226 0.020291245 0.15111504 -0.106705256 0.07488637 -0.26936457 0.30617803
0.07777324 0.109520905 0.119632 0.14009087 0.088517606 -0.12782657 0.101017 -0.26295534
0.0509741 0.42337394 0.011405856 0.0072432132 0.23546915 -0.24972482 0.1271976 0.24054301
0.07391279 0.021866165 -0.23794624 -0.32756507 -0.036817767 0.16218765 -0.10399186 0.17493899
0.05997729 -0.11309462 -0.2939509 -0.3000591 0.13787206 0.18127976 0.057688124 0.0327363
-0.13885233 -0.2849302 -0.124793604 -0.07019419 -0.22487889 -0.018519968 0.11831292 0.16022477
0.11777156 -0.2778951 0.052094612 0.084597856 -0.041575927 0.01490145 -0.08809034 0.10669239
0.0070643052 0.17151222 0.16027308 0.24840043 0.34104213 0.017572794 0.23564883 -0.23171198
-0.032254323 0.36683744 0.06753519 -0.051880747 0.26173982 -0.31681198 0.070570625 0.090525985
0.07016839 -0.095994264 -0.17375043 -0.34883887 -0.080129586 0.1346701 0.0084798345 0.20084596
-0.3326345 -0.28401455 0.37934387 -0.04793684 -0.035414547 -0.06358983 -0.22469833 -0.031683
0.19562112 -0.06999555 -0.19237421 0.01224056 -0.06327292 -0.16945447 0.0155112175 -0.07517852

pointwise2.bias f4 [16]
00000000: 58fb f1bd ef6c edbb ed3d c0bc ecc3 85be
00000010: 338e 0b3e 8cc7 6f3e 0e2b 113d 3fb6 d9bd
00000020: f3c0 553d 4b1a 463e e890 d43c fca6 a13d
00000030: 17e7 e8bd 7319 a8bd 6374 033e 147f 3f3e
-0.11815518 -0.007245652 -0.023467029 -0.2612604 0.13628463 0.23415965 0.03544145 -0.10630464
0.052185964 0.19345967 0.025948003 0.07893178 -0.11372202 -0.08207979 0.12837367 0.1870082

fc1.weight f4 [3, 16]
00000000: 55b5 7fbd 1d5d 883e 2917 dabe 491b 7a3e
00000010: e693 dd3e 2199 0dbd 72ba 853e 3809 a73e
00000020: fcd2 52be 58b0 82be f586 a43d 0da4 dc3e
00000030: e71c aabb f208 d7be a2f7 e13e 6275 d83e
00000040: fb0f 9ebe 3eae 27bf cfd9 053e 0eff b13e
00000050: 4bd3 1ebf c3e9 003f 37e6 20bf 66f5 44bf
00000060: 909b f93e 0d29 0fbe e36f aebe 7044 c03d
00000070: a482 083f 0f78 bbbe cf96 773e c638 28bf
00000080: b5ea 0f3f 68f6 55be 94ba 0b3f 3808 5bbf
00000090: be0e 1ebe 095f 2fbf 059a ba3e 279d 94bc
000000a0: 537a 25bf b38a f33e 1289 143f e424 2abf
000000b0: 234b 47bf 74de b73e 069b 1bbf 1de7 0b3e
-0.06242879 0.2663354 -0.42595795 0.24424471 0.432769 -0.034569863 0.2611881 0.3262422
-0.20588297 -0.25525165 0.080335535 0.4309391 -0.0051914337 -0.41999012 0.4413424 0.42277056
-0.30871567 -0.6550025 0.13071369 0.34764904 -0.6204116 0.5035669 -0.6285128 -0.7693695
0.48751497 -0.13980503 -0.34069738 0.093880534 0.5332434 -0.36615035 0.24178623 -0.6571163
0.5621751 -0.20894778 0.5458157 -0.85559416 -0.15435311 -0.6850439 0.36445633 -0.018141342
-0.64639777 0.47566757 0.5802165 -0.6646254 -0.77849025 0.35911906 -0.6078342 0.13662381

fc1.bias f4 [3]
00000000: 743c 1ebe 6bbc 323e f75f 3abe
-0.15452749 0.17454688 -0.1820067
